models/lin_reg.pth (torch, 689175 bytes, 6 tensors)

layer1.0.weight f4 [200, 784]
0	0xbd09f6a9	-0.0336825
1	0x3caef8c5	0.021358857
2	0xbbf2b5c8	-0.007406924
3	0x3c945b05	0.018109808
4	0x3ba0bca4	0.0049053
5	0xbb913f54	-0.004432598
6	0x3c2151ef	0.009846195
7	0x3adf1e3c	0.001702256
8	0x3c54bc27	0.012984312
9	0xbc6501a9	-0.013977447
10	0xbb2e8dd8	-0.0026634838
11	0xbb569f08	-0.0032748599
12	0x3ba74a0e	0.0051052636
13	0xb96efd8a	-0.000227919
14	0x3cff447c	0.031160586
15	0x3c351d6f	0.011054381
16	0xbc5ae2f7	-0.013359777
17	0xbcb130b3	-0.021629667
18	0xbbc61c64	-0.006045865
19	0xbc7d5f28	-0.015464582
20	0xbc3c7be1	-0.011504144
21	0x3ad85460	0.0016504638
22	0x3cadebeb	0.021230659
23	0x3c9e88f1	0.019352408
24	0xbd0f3f19	-0.034972284
25	0x3cb4e1f5	0.022080401
26	0x3c227df7	0.009917728
27	0x3d0a83f0	0.03381723
28	0x3cc0a053	0.023513949
29	0xbd0587fb	-0.032600384
30	0xbd0b559d	-0.034017194
31	0xbc8d9ae1	-0.017285766
32	0x3d0035e7	0.031301405
33	0xbbc4e2d4	-0.0060084853
34	0x3c77ba34	0.015120078
35	0xbc8a6e45	-0.016898284
36	0x3d0d6898	0.034523576
37	0xbc7a2e25	-0.015269791
38	0x3cdae8e8	0.026722386
39	0x39bc5e52	0.00035928428
40	0xbc9b271b	-0.018939545
41	0x3c954049	0.01821913
42	0xbc9bfcca	-0.019041438
43	0x3c2ad745	0.010427301
44	0xbc29fd70	-0.010375366
45	0xbb825474	-0.0039773528
46	0xbd0ce420	-0.034397244
47	0xbc8bfba6	-0.017087769
48	0x3c9e4430	0.019319624
49	0xbc0f365b	-0.008740987
50	0x3d115c9c	0.03548871
51	0x3ce9c045	0.028534064
52	0xbae2ffca	-0.0017318663
53	0xbcc3c65f	-0.023898302
54	0x3cb1ad33	0.021689033
55	0x3c34a0a7	0.011024631
56	0xbcbd9cc3	-0.023146039
57	0x3cbd8cc1	0.023138406
58	0x3cb121db	0.021622589
59	0x3d017ece	0.03161507
60	0xbca47dfc	-0.020079605
61	0xbbc296b8	-0.005938377
62	0xba619a70	-0.0008606082
63	0x3b9ef41a	0.0048508765
64	0xbce38f81	-0.027778389
65	0xbcd29958	-0.025707886
66	0x3c9e0521	0.019289555
67	0xbc0387a7	-0.0080279475
68	0x3c90d6b5	0.017680505
69	0x3b075fa2	0.0020656367
70	0x3c3d9250	0.011570528
71	0x3be01216	0.0068380935
72	0x3c431aba	0.011908228
73	0x3c920c98	0.01782827
74	0xbd065063	-0.032791506
75	0x3c930dfd	0.017951006
76	0xbccfa5b0	-0.02534756
77	0xbcdde910	-0.027088672
78	0x3b082510	0.0020774044
79	0xbbcb7e9e	-0.0062101623
80	0x3cab3a0d	0.020901704
81	0xbca9ede8	-0.020743325
82	0xbd024a44	-0.031809106
83	0x3cd46f9b	0.025932124
84	0xbbaf7c1c	-0.005355371
85	0x3ca4120f	0.020028142
86	0x3c3b246d	0.011422259
87	0xbcdbe1c8	-0.02684106
88	0x3be0854e	0.0068518287
89	0x3c0788f1	0.0082723955
90	0xbcc5840b	-0.024110815
91	0xbc8df36e	-0.01732799
92	0x3c3bfe71	0.011474238
93	0x3bc0378c	0.0058659967
94	0xbc7bfc14	-0.015379924
95	0xbc29055d	-0.01031622
96	0x3d0a9b8b	0.033839744
97	0xbbab0184	-0.0052186865
98	0x3cb4cad1	0.022069367
99	0x3c811622	0.015757624
100	0xbcbf9dc5	-0.02339066
101	0xbcf8c141	-0.030365588
102	0x3d07a0fd	0.033112515
103	0x3a74a97f	0.0009333118
104	0x3cc63c96	0.024198812
105	0x3bfd6ecf	0.0077341567
106	0x3c408e9f	0.0117527535
107	0x3cdbd32b	0.026834091
108	0x3d0addcf	0.03390294
109	0xbcc2f493	-0.023798263
110	0x3b905dec	0.0044057276
111	0x3cd9d85f	0.026592432
112	0x3cd375eb	0.025813064
113	0x3cb544ab	0.02212747
114	0xbcd43809	-0.025905626
115	0xbcd3343b	-0.025781741
116	0xbcb551a2	-0.022133652
117	0x3b757192	0.0037451726
118	0x3d110fe8	0.03541556
119	0xbcba8a7d	-0.022771114
120	0x3c997bd0	0.018735796
121	0xbc9b1a7c	-0.018933527
122	0xbd00826d	-0.031374384
123	0xbb9ff6a9	-0.004881699
124	0x3ccabfdc	0.024749689
125	0x3d1e431d	0.038638223
126	0xbc94f46a	-0.018182952
127	0x3c38f5dd	0.011289087
128	0x3d054359	0.03253493
129	0x3cc6b776	0.024257403
130	0x3ccad46b	0.024759492
131	0x3ce5f68e	0.028071668
132	0x3cd77e38	0.026305303
133	0x3c5143ab	0.012772481
134	0xbcb2f49d	-0.021845156
135	0xbced7bbc	-0.028989665
136	0xbc80f469	-0.015741544
137	0xbb87e2c1	-0.004146904
138	0xbcb3d21a	-0.02195077
139	0x3c5519d7	0.013006649
140	0x3c341e6f	0.010993584
141	0xbc057908	-0.008146532
142	0x3c5fc84b	0.013658593
143	0x3c3bc2cf	0.01146002
144	0x3caba70e	0.020953681
145	0x3cc084bf	0.023500798
146	0xbc48e4f0	-0.012261614
147	0x3d0f7544	0.035023943
148	0xbb770b96	-0.0037696115
149	0x383a5a20	4.442979e-05
150	0xbd03936b	-0.03212301
151	0xbcb82903	-0.022480493
152	0xbca870cc	-0.020561598
153	0xbc590502	-0.013245823
154	0x3cee81ec	0.029114686
155	0xbc0b884c	-0.008516382
156	0xbcbef7ea	-0.023311574
157	0x3c88e29f	0.016709624
158	0x3c5d141f	0.013493567
159	0x3ccaa7d6	0.024738234
160	0xbc6e051a	-0.0145275835
161	0x3c382846	0.011240071
162	0xbc28a64b	-0.010293554
163	0xbbee7df4	-0.0072781984
164	0xbce72413	-0.028215444
165	0xbc844b82	-0.016149286
166	0xbc33e4dd	-0.010979858
167	0x3c793f60	0.015212864
168	0x3bd3d89c	0.006465031
169	0x3c0f90a9	0.008762517
170	0x3d11efd3	0.035629105
171	0x3d0d9714	0.034567907
172	0x3cbf1656	0.02332608
173	0x3a2ac2ed	0.00065140316
174	0xbcc72bae	-0.02431282
175	0x3cecb320	0.028894007
176	0xbbcf7f58	-0.006332319
177	0x3a98823d	0.0011635494
178	0xbcf5aba5	-0.029989073
179	0xbc3f9236	-0.011692574
180	0xbce4c59e	-0.027926262
181	0x3d0656aa	0.032797493
182	0xbcf7daa7	-0.030255629
183	0xbce08cb1	-0.027410837
184	0xba9eea8e	-0.0012124346
185	0xbcafc43b	-0.021455875
186	0x3c0f928e	0.008762969
187	0xbc85672e	-0.016284551
188	0xbc8a9f94	-0.016921796
189	0x3b5f59a5	0.0034080532
190	0x3ce17e0c	0.027525924
191	0xbccd2232	-0.02504072
192	0x3c8a991d	0.016918713
193	0x3cbcdafe	0.023053642
194	0x3d0ecd69	0.034863863
195	0xbccd44a7	-0.02505715
196	0x3c0cbd7b	0.008590098
197	0xbcd8c489	-0.026460903
198	0x3cf97f42	0.030456189
199	0xbc648ad8	-0.013949119
200	0x3caa5440	0.020792127
201	0x3afe42a3	0.0019398521
202	0xba84e5a0	-0.0010139234
203	0x3ad9de82	0.0016622099
204	0x3c556049	0.013023444
205	0x3cc23ae1	0.023709716
206	0x3c115ee5	0.008872722
207	0x3c150b29	0.009096899
208	0xbd09da22	-0.033655293
209	0x3cca6afd	0.02470922
210	0x3cd97d86	0.026549112
211	0x3cd80a5b	0.026372125
212	0x3cd0a1d5	0.025467793
213	0xbce3887b	-0.02777504
214	0xbc75434d	-0.014969659
215	0x3cf0a0f8	0.02937363
216	0xbce80c4f	-0.028326182
217	0x3d0419eb	0.03225128
218	0xbce2a297	-0.02766542
219	0xbcd55fc2	-0.026046637
220	0x3c8f330a	0.017480392
221	0xbcd1133b	-0.025521865
222	0xbc072493	-0.008248466
223	0x3cd4aad7	0.025960369
224	0x3ce7412a	0.028229315
225	0x3d0a315a	0.03373847
226	0xbbefe5a6	-0.0073210774
227	0xbce3d3c6	-0.027810942
228	0x3d0f606e	0.035004072
229	0xbbda313c	-0.006658701
230	0xbc535b05	-0.012900119
231	0x3c351ba0	0.01105395
232	0xbca06df0	-0.019583672
233	0x3cf92847	0.030414714
234	0x3cdce3b3	0.026964044
235	0xbcfbfcca	-0.030760188
236	0xbcf31800	-0.02967453
237	0xbbd12d3d	-0.0063835667
238	0x3c286363	0.010277602
239	0xbb34bb46	-0.0027577444
240	0xbcb87fd2	-0.022521887
241	0xbb194df9	-0.0023392423
242	0xbd070047	-0.03295925
243	0xbcba5b70	-0.022748679
244	0xbcad789d	-0.021175677
245	0x3cfaa698	0.030597016
246	0x3cfc4741	0.030795695
247	0xbc5805db	-0.01318499
248	0x3b151876	0.0022750176
249	0x3c8729a5	0.01649935
250	0x3b96253b	0.004582075
251	0xbc911e70	-0.017714709
252	0x3ca83fb7	0.020538194
253	0x3cb37436	0.021906
254	0xbb0557e7	-0.0020346583
255	0xbb9baa0d	-0.0047504962

layer1.0.bias f4 [200]
0	0x3cd19769	0.025584893
1	0x3c8e2874	0.017353274
2	0x3b7338db	0.0037112746
3	0x3b9cbf9c	0.004783584
4	0x3cc0e53b	0.023546806
5	0xbc2c2b8b	-0.010508428
6	0xbb9d75e6	-0.0048053144
7	0x3cbcb5ca	0.023035903
8	0xbab8c36f	-0.001409633
9	0xbcc67817	-0.024227185
10	0x3b54e1f3	0.003248331
11	0xbbd08ed9	-0.006364685
12	0xbcd4d4c8	-0.025980368
13	0x39c1bd00	0.00036952645
14	0xbcd042c4	-0.025422461
15	0xbccd590d	-0.025066877
16	0x3c0e11b7	0.008671216
17	0xbc4cd2e7	-0.012501455
18	0xbc7a5f1e	-0.015281467
19	0xbce4dfd5	-0.027938763
20	0x3ca0fca3	0.019651717
21	0xbc9f11be	-0.01941764
22	0x3a7cdf8a	0.0009646347
23	0x3c91f8df	0.017818866
24	0xbcb2cd61	-0.021826448
25	0x3b88c3b7	0.0041737217
26	0x3cc01486	0.023447286
27	0xbcccf822	-0.025020663
28	0x3d03de74	0.03219457
29	0xbc081d90	-0.0083078295
30	0x3d09439c	0.033511743
31	0xbce0a00c	-0.027420066
32	0x3b0a775c	0.0021128273
33	0x3d2a320b	0.04155163
34	0xbcd44f72	-0.025916789
35	0xbcb45681	-0.022013905
36	0xbd4578e9	-0.048211012
37	0xbc62315f	-0.013805716
38	0x3c42e6cb	0.011895846
39	0x3c03de25	0.008048569
40	0xbb9b2bd6	-0.0047354503
41	0x3cba056d	0.022707665
42	0x3b12b69e	0.002238668
43	0x3ce53020	0.02797705
44	0x3cf2adaa	0.029623825
45	0xbc4b1e8c	-0.01239742
46	0xbc9fdce6	-0.019514512
47	0xbcadb7bc	-0.021205775
48	0x3b998d3a	0.004686025
49	0xbcf00ac7	-0.029302014
50	0xbbf336f2	-0.0074223215
51	0x3ccc2c4c	0.024923466
52	0x3cfd407c	0.030914538
53	0x3b89e4b9	0.004208174
54	0x3bfb1784	0.0076627154
55	0x3b86573b	0.004099754
56	0x3d3b25e7	0.045690443
57	0x3ba36f76	0.0049876524
58	0x3d1dff8a	0.03857378
59	0xbcc7cff5	-0.024391154
60	0xbccd3423	-0.025049275
61	0x3b160be2	0.0022895266
62	0xbc45f301	-0.012081862
63	0x3ca78ab6	0.020451885
64	0xbc35d6cd	-0.011098576
65	0xbc93c7ae	-0.01803955
66	0xbc967114	-0.018364467
67	0xba2fc325	-0.0006704799
68	0xbca1f221	-0.019768776
69	0x3be02461	0.006840274
70	0xb92ce716	-0.00016489284
71	0x3cf88924	0.030338831
72	0xbcbc749f	-0.023004828
73	0x3c0643b5	0.008194854
74	0x3c8be7d9	0.017078327
75	0x3d1f6785	0.038917083
76	0x3cb921bd	0.022599095
77	0x3cbd3f2e	0.023101415
78	0xbcb4ee48	-0.022086278
79	0x3d0b126a	0.033953108
80	0x3929dfda	0.00016200487
81	0x3c7ea7b2	0.015542911
82	0xbcb9f010	-0.022697479
83	0xbc0ba4da	-0.00852319
84	0x3aae4df2	0.0013298376
85	0x3c998b48	0.018743172
86	0xbccbdc9a	-0.024885464
87	0x3a8b0d1c	0.0010608765
88	0x3d048095	0.032349188
89	0xbd09db6a	-0.033656515
90	0xbcbc5f92	-0.02299479
91	0x3cefc958	0.029270813
92	0xbc166fdb	-0.009181942
93	0x3c0f57aa	0.008748928
94	0x3cf97562	0.03045148
95	0xb96d45a8	-0.0002262803
96	0x3c5f8d83	0.013644579
97	0xbcb7b7c3	-0.022426492
98	0x3cba1937	0.022717101
99	0x3b841ac3	0.0040315106
100	0xbbd20740	-0.0064095557
101	0x3bf6a144	0.0075265486
102	0x3cfecb88	0.03110291
103	0xbca28603	-0.019839292
104	0xbc998e55	-0.018744627
105	0xbc539656	-0.012914261
106	0x3be29da2	0.006915764
107	0xbc97b292	-0.018517766
108	0x3bba3166	0.0056821583
109	0xbcafa17e	-0.02143931
110	0x3cd4648d	0.025926853
111	0xbd069b14	-0.032862738
112	0x3b7a321e	0.0038176845
113	0x3c56578f	0.013082399
114	0x3ca2286b	0.019794663
115	0x3d396af3	0.04526801
116	0xbcf3dc82	-0.029768232
117	0x3c97ec94	0.018545426
118	0x3c766401	0.015038491
119	0x3d30575e	0.04305207
120	0xbcdf63b1	-0.027269216
121	0x3c8ae378	0.016954169
122	0xbc400165	-0.0117190825
123	0x3d17c7ca	0.037055768
124	0x3c7056ca	0.01466913
125	0x3c35e713	0.011102456
126	0x3d1c5443	0.038166296
127	0x3c906fbf	0.01763141
128	0xbbbe4e67	-0.005807686
129	0x3cfea1a7	0.031082941
130	0x3ae6c91a	0.001760754
131	0xbcf3db4b	-0.029767653
132	0x3d0df379	0.03465602
133	0x3c6abb5e	0.014326898
134	0x3ce3b3aa	0.027795631
135	0xbcc714da	-0.024301935
136	0xbba674f6	-0.005079861
137	0x3ccb1e87	0.02479483
138	0x3ca7e225	0.020493576
139	0x3cae5f2b	0.021285614
140	0xbc26d6b5	-0.010183026
141	0xbb5ef09e	-0.003401793
142	0x3cd6e3f5	0.026231745
143	0x3c11387a	0.008863563
144	0xb9757238	-0.0002340757
145	0xbce01a10	-0.027356178
146	0x3cc2aa13	0.023762738
147	0x3d127664	0.035757437
148	0xbc498c35	-0.012301494
149	0xbd00eb6c	-0.031474516
150	0xbc27d389	-0.010243305
151	0xbbd5aa78	-0.0065205656
152	0x3c8b32ff	0.01699209
153	0x3b644487	0.0034830885
154	0x3c52531b	0.012837197
155	0xbc738814	-0.0148639865
156	0x3bfb2bec	0.007665148
157	0x3ab72710	0.0013973434
158	0x3cada0d6	0.021194857
159	0x3d0b9ff2	0.034088083
160	0xbcf6b714	-0.030116595
161	0x3c29cec0	0.010364234
162	0xbcf37b9d	-0.02972203
163	0xbc806072	-0.015670989
164	0x3cbdefb7	0.023185594
165	0xbcfacf30	-0.030616373
166	0xbcac7e07	-0.021056188
167	0x3b8f5c06	0.0043749837
168	0xb95f4ac2	-0.00021294787
169	0xbce8e125	-0.02842767
170	0x3c0ce3b0	0.008599207
171	0x3c973388	0.01845719
172	0x3ba78b20	0.0051130205
173	0x3cb7646f	0.022386758
174	0x3c14f767	0.009092188
175	0x3c98ddf0	0.018660516
176	0xbcdca275	-0.026932934
177	0x3c7fd13a	0.015613848
178	0xbd2fb4ea	-0.042897142
179	0xbc9200a2	-0.017822567
180	0xbcc84828	-0.02444847
181	0xbccddc9d	-0.02512961
182	0x3d26bac2	0.04070545
183	0x3c1ddc52	0.009635048
184	0x3c77bd2b	0.015120785
185	0xbcac5c71	-0.021040173
186	0xbbcac30a	-0.0061878012
187	0x3d03cfeb	0.032180708
188	0x3c278621	0.01022485
189	0x3bf34aec	0.007424703
190	0x3d1dc4e0	0.038517833
191	0xbcc49d79	-0.02400087
192	0xbce1cd13	-0.027563607
193	0x3b81609a	0.0039482834
194	0xbc15b358	-0.009136997
195	0xbc1d73d4	-0.009610135
196	0x3ce1b322	0.027551237
197	0xb98926a6	-0.00026159472
198	0x3ca8e86d	0.020618642
199	0x3aa51990	0.0012596119

layer2.0.weight f4 [70, 200]
0	0xbcd0934d	-0.025460863
1	0x3d638612	0.05554778
2	0xbdaad625	-0.08341626
3	0xbb3f039e	-0.0029146443
4	0xbc468f03	-0.012119058
5	0xbda90b9f	-0.0825417
6	0xbd700bdb	-0.058605056
7	0x3cf8f198	0.030388638
8	0xbd25dca4	-0.040493622
9	0x3d22f6d8	0.03978619
10	0x3def87a1	0.11695791
11	0xbd9fc19d	-0.07800601
12	0x3cc3528b	0.02384307
13	0x3d699aa1	0.05703223
14	0xbbedd87e	-0.007258474
15	0xbdad08f3	-0.084489726
16	0xbd7c3ddc	-0.06158243
17	0xbd952df3	-0.07284155
18	0x3dba90e2	0.091096655
19	0xbcd8272b	-0.026385864
20	0x3da39886	0.07988076
21	0x3d5cbebc	0.053892836
22	0x3c22f567	0.009946204
23	0xbd2b3baa	-0.041804947
24	0xbdfc4fc1	-0.12319899
25	0x3dabd89c	0.08390924
26	0xbd15f73b	-0.03661273
27	0xbc02be6d	-0.007979971
28	0x3ce1cfd2	0.027564917
29	0xbd0b2715	-0.03397282
30	0xbd80d03a	-0.06289716
31	0xbdb19e02	-0.08672716
32	0xbd21afc0	-0.03947425
33	0x3d763b06	0.060114883
34	0x3d3d2c00	0.04618454
35	0xbcdf83bb	-0.027284494
36	0xbcec18fb	-0.028820505
37	0xbd28d5ce	-0.041219525
38	0xbd375cd8	-0.044766277
39	0x3d610dd4	0.05494483
40	0x3c62941f	0.01382926
41	0xbd458000	-0.048217773
42	0x3dd299ac	0.10283217
43	0x3c253bb7	0.010085038
44	0x3dee0e96	0.11623876
45	0xbd59e7b1	-0.053199474
46	0x3d293d46	0.0413182
47	0xbdbfa0ae	-0.09356819
48	0x3c82228f	0.01588562
49	0x3b6c465d	0.0036052682
50	0x3d92b052	0.07162537
51	0x3e415428	0.1887976
52	0x3db8cd30	0.090235114
53	0xbbfd06f2	-0.007721775
54	0x3a4fa9ed	0.0007921744
55	0xbd4d4a7a	-0.050119855
56	0x3e82fd36	0.2558381
57	0x3da30225	0.079593934
58	0xbc207be0	-0.009795159
59	0xbd82fe79	-0.06396193
60	0xbdf039fc	-0.1172981
61	0x3d265baa	0.04061476
62	0xbd4e9e47	-0.050443914
63	0xbd418876	-0.04724928
64	0xbd78b75e	-0.060721748
65	0xbdc564bf	-0.096383564
66	0xbd381dd9	-0.04495034
67	0xbd241e94	-0.040068224
68	0x3cbc8ffa	0.023017872
69	0x3da1f137	0.07907336
70	0x3d061e44	0.032743707
71	0xbdd3c7ba	-0.10340829
72	0x3d86a94a	0.06575258
73	0xbda5df64	-0.08099249
74	0x3d5a43e3	0.053287398
75	0x3e21d87c	0.15805238
76	0x3d2ca8b7	0.042153087
77	0x3dae341a	0.08506031
78	0x3be7f822	0.0070791403
79	0x3da90633	0.082531355
80	0x3e1ec5e2	0.15505174
81	0xbda7b0ed	-0.08188043
82	0x3b8d010c	0.0043031033
83	0xbc98e79c	-0.018665127
84	0x3d83b5a4	0.064311296
85	0xbd53c986	-0.05170586
86	0xbced3a28	-0.028958395
87	0xbdfec168	-0.12439233
88	0x3d123b41	0.03570104
89	0xbdba0781	-0.090834625
90	0x3ddcf94b	0.10789736
91	0x3dd708bb	0.10499712
92	0x3c927310	0.017877132
93	0xbdb657b7	-0.08903449
94	0x3d493ed6	0.04913219
95	0x3cb6ce47	0.022315158
96	0xbd45c39a	-0.048282243
97	0x3d2edfbc	0.04269384
98	0xbced732c	-0.028985582
99	0xbd2011c8	-0.039079458
100	0x3d8e47f5	0.069473185
101	0x3db61058	0.08889836
102	0x3dc9abbb	0.09847208
103	0xbc5a5018	-0.01332476
104	0x3dbf5b10	0.09343541
105	0x3cc7e260	0.024399936
106	0x3c30095d	0.01074442
107	0xbcf1c8f0	-0.02951476
108	0xbdaaa63b	-0.08332487
109	0xbc410c86	-0.011782771
110	0x3d157448	0.036487848
111	0x3c02e894	0.007990021
112	0xbba5db46	-0.00506154
113	0xbca9f8c2	-0.0207485
114	0x3cf42093	0.029800689
115	0x3df36ad4	0.1188561
116	0x3d97efad	0.074187614
117	0x3dfef62e	0.12449299
118	0xbdb4d475	-0.088295855
119	0xbdb6b30d	-0.0892087
120	0x3c7cd209	0.015430936
121	0x3c109b5e	0.008826105
122	0x3dd8657a	0.1056623
123	0x3e0f45af	0.13991426
124	0x3c841965	0.01612539
125	0xbd953e6a	-0.07287295
126	0xbd33bcd8	-0.043881267
127	0xbd27931f	-0.04091179
128	0x3dfd20ca	0.1235977
129	0x3d13f338	0.036120623
130	0x3d689aba	0.056788184
131	0xbcd746d3	-0.026278889
132	0xbd028499	-0.031864736
133	0x3e557e51	0.20848967
134	0x3cba7af2	0.022763703
135	0x3ce186e0	0.027530134
136	0xbd3fc617	-0.046819773
137	0xbcabf2cf	-0.020989804
138	0x3dc1e99a	0.09468384
139	0xb98d7c45	-0.00026986204
140	0x3d13bd6a	0.03606931
141	0x3e0e0e45	0.13872631
142	0x3dbaff27	0.09130698
143	0x3d766c95	0.060162146
144	0xbb5a6cb7	-0.003332896
145	0x3d5d5895	0.054039557
146	0xbc6d5d57	-0.014487586
147	0x3d488ad3	0.048960518
148	0xbd225521	-0.039631967
149	0x3c84c507	0.016207231
150	0xbda88996	-0.082293674
151	0x3d86574a	0.06559618
152	0x3dd15ee4	0.10223177
153	0x3ca83e56	0.020537537
154	0xbc9d478e	-0.019199159
155	0x3b25d984	0.0025306651
156	0xbca86337	-0.020555122
157	0x3db4103d	0.0879216
158	0x3d7b02b7	0.061281886
159	0x3cce092a	0.025150854
160	0xbc1b5960	-0.009481758
161	0x3c4c9ecc	0.012489032
162	0xbd819486	-0.06327157
163	0x3d6013c5	0.054706354
164	0x3cf8a82d	0.03035363
165	0x3ca46c85	0.020071277
166	0x3befb72e	0.007315538
167	0x3dad0f15	0.08450142
168	0x3d4a8cca	0.049450673
169	0x3aed85a4	0.0018121493
170	0xbd56895d	-0.052377094
171	0xbd4e70f2	-0.05040068
172	0x3d4ec1bf	0.05047774
173	0xbdf541c3	-0.11975434
174	0x3c7b1799	0.01532545
175	0xbe09fa57	-0.13474403
176	0x3daa1c65	0.08306197
177	0x3cebe9df	0.028798042
178	0x3daf4bb1	0.08559359
179	0x3c611350	0.013737515
180	0x3d3859a0	0.045007348
181	0x3df7bd6b	0.120966755
182	0x3c3ad2a5	0.011402761
183	0xbdbd4542	-0.092417255
184	0xbc5a2364	-0.013314102
185	0xbbaa9451	-0.005205669
186	0x3d33881a	0.04383097
187	0x3d18b0a9	0.03727785
188	0x3da8bf94	0.08239666
189	0xbdb3f3bd	-0.08786724
190	0x3e0de65a	0.13857403
191	0x3d6b68f9	0.057473157
192	0x3d6feca0	0.058575273
193	0xbd1df46c	-0.038563177
194	0x3e1c8864	0.15286404
195	0x3d0511a6	0.032487534
196	0x3d7d36b7	0.06181976
197	0x3d01fa7a	0.031733014
198	0x3b6ddfb8	0.0036296677
199	0xbd6c2b53	-0.057658505
200	0x3d8537ec	0.06504807
201	0x3c71ba30	0.014753863
202	0xbda6f51f	-0.08152222
203	0xbd36654f	-0.04453021
204	0xbdd6485f	-0.104630224
205	0xbd16deb4	-0.03683348
206	0x3d98e11a	0.0746481
207	0x3d0a1bb0	0.03371781
208	0x3b84eafd	0.004056333
209	0xbd845386	-0.06461243
210	0x3dd04cb3	0.10170879
211	0x3c548fe8	0.012973763
212	0xbdddf1de	-0.10837148
213	0xbd5e4609	-0.05426601
214	0x3b97a9a8	0.004628379
215	0x3d90f2b7	0.07077544
216	0x3d0ac081	0.033874992
217	0x3e04de3e	0.12975404
218	0x3af14a68	0.0018409016
219	0xbb9f9796	-0.0048703654
220	0x3db525bb	0.08845087
221	0x3d6d8f9f	0.057998296
222	0xbd6bf32e	-0.05760496
223	0x3c4c15e3	0.01245639
224	0x3d6477e3	0.055778395
225	0xbd8f5994	-0.069995075
226	0xbd8e2b5d	-0.06941865
227	0x3be1aa3c	0.0068867486
228	0xbd5c20f9	-0.053742383
229	0x3cde06e2	0.027102891
230	0x3db1fcc8	0.08690792
231	0xbdd0e0cc	-0.101991266
232	0x3cf83677	0.030299408
233	0xbc46963d	-0.012120781
234	0xbc592b10	-0.013254896
235	0x3e025eef	0.12731527
236	0x3d91d0fc	0.07119939
237	0x3d5bc134	0.05365105
238	0xbb8f7600	-0.0043780804
239	0xbdf034ec	-0.11728844
240	0xbda453eb	-0.080238186
241	0xbb8c1f44	-0.004276188
242	0x3d7be39c	0.061496362
243	0xbcc5e582	-0.02415729
244	0x3dab24de	0.08356641
245	0x3c4fadcc	0.012675714
246	0x3cc9f03a	0.024650682
247	0xbcb499c8	-0.022045985
248	0x3c3010c8	0.010746188
249	0x3ca5b0fc	0.020225994
250	0x3d9c250e	0.07624255
251	0x3de1ebff	0.11031341
252	0x3c01eb27	0.0079296
253	0x3c423ef2	0.011855828
254	0x3d4f43e3	0.05060185
255	0x3d563db8	0.052304953

layer2.0.bias f4 [70]
0	0x3cd238ab	0.025661787
1	0x3d38cd10	0.045117438
2	0xbd0e3182	-0.034715183
3	0xbca310cb	-0.019905468
4	0x3ce62c10	0.028097183
5	0xbd4ab84c	-0.049492165
6	0xbcad5a65	-0.021161268
7	0x3d8600ca	0.06543119
8	0xbcec2a53	-0.028828776
9	0xbc27d199	-0.010242843
10	0xbd8c675f	-0.06855654
11	0x3da4fd09	0.08056075
12	0x3cfd4e5e	0.030921157
13	0xbd19dc13	-0.037563395
14	0x3d8a06cd	0.067395784
15	0xbbba6ae9	-0.005689014
16	0x3d39cae4	0.045359507
17	0x3da9469f	0.08265423
18	0x3d60d10f	0.054886874
19	0xbccba34b	-0.024858138
20	0xbbea29c1	-0.0071460907
21	0xbb9a8964	-0.0047160853
22	0xbd32a6a5	-0.043615956
23	0xbc50092a	-0.012697497
24	0x3d593d54	0.053037003
25	0x3d9745b5	0.073863424
26	0xbd73784e	-0.059440903
27	0x3bf81edc	0.007572038
28	0xbc768e05	-0.0150485085
29	0xbc6b64da	-0.014367307
30	0x3d65165b	0.055929523
31	0xbd215ad1	-0.03939325
32	0x3d9dcf23	0.07705524
33	0x3d5cc91b	0.053902727
34	0x3da4bad4	0.08043447
35	0x3cd67b28	0.026181772
36	0x3b9f424d	0.0048601986
37	0xbd70060b	-0.058599513
38	0x3b9a45a0	0.004708007
39	0xbc0f6fa5	-0.0087546455
40	0xbd15bc9f	-0.036556836
41	0xbc8d573b	-0.017253509
42	0xbc92e4a2	-0.017931286
43	0x3d6f25e7	0.058385756
44	0xbd6f2626	-0.05838599
45	0x3d6bd096	0.05757197
46	0x3ccf7f7a	0.02532934
47	0x3cebbc56	0.028776329
48	0x3ccf2d46	0.025290143
49	0xbd1bf375	-0.038073976
50	0xbbbf15c2	-0.005831451
51	0xbcd0125f	-0.025399385
52	0xbcb41f50	-0.021987587
53	0xbd3f2ea0	-0.046675324
54	0xbd28b82b	-0.04119126
55	0x3b81884c	0.0039530154
56	0x3ced00c4	0.02893103
57	0x3c34fd0b	0.011046658
58	0xbd032ddb	-0.032026153
59	0xbc807e3b	-0.015685191
60	0x3d610ec9	0.05494574
61	0x3d971df8	0.07378763
62	0xbb862809	-0.004094128
63	0x3bd16428	0.0063901134
64	0xbd92eb7a	-0.0717382
65	0x3b480f01	0.003052652
66	0xbc3ee77a	-0.011651868
67	0x3cbbb4ae	0.022913303
68	0xbd715521	-0.058919076
69	0x3bd2945a	0.0064263763

layer3.0.weight f4 [10, 70]
0	0x3ed190cf	0.40930793
1	0x3c8dae92	0.017295156
2	0xbdf162ca	-0.11786421
3	0xbec67563	-0.38761434
4	0xbe5260d8	-0.20544755
5	0xbddd5a78	-0.10808271
6	0x3d2bbdc6	0.04192903
7	0xbe4184e7	-0.18898354
8	0x3eec7e08	0.46189904
9	0xbdf33c76	-0.118767664
10	0xbd30f8d8	-0.043206066
11	0x3e7ce231	0.2469566
12	0xbda4b578	-0.08042425
13	0xbea463b7	-0.32107326
14	0xbecd7f0e	-0.40135998
15	0xbd3901de	-0.045167796
16	0x3ea6a90a	0.32550842
17	0x3c75b8a6	0.014997637
18	0xbe46ac80	-0.19401741
19	0x3e88151f	0.26578614
20	0x3dafd2de	0.085851416
21	0xbd92d756	-0.07169978
22	0x3c8cc5f8	0.017184243
23	0xbe1d741d	-0.15376325
24	0xbd1061d5	-0.03524955
25	0xbe83eb44	-0.2576543
26	0xbdfb1ec4	-0.122617275
27	0x3d1ea56f	0.03873199
28	0x3e5455c4	0.20735842
29	0xbd8e7edc	-0.0695779
30	0xbe604515	-0.21901353
31	0xbdc808ed	-0.097673275
32	0xbde27f9f	-0.11059498
33	0x3d80b17b	0.06283852
34	0xbd9e8d88	-0.07741839
35	0x3be831d0	0.0070860162
36	0x3ca720ec	0.02040144
37	0x3dabf935	0.08397142
38	0x3d3b7512	0.045765944
39	0xbcd0695d	-0.025440866
40	0x3e30e488	0.17274678
41	0x3daa940d	0.0832902
42	0xbd980003	-0.07421877
43	0x3e6423aa	0.2227923
44	0x3c82a330	0.015946954
45	0xbc8af36c	-0.016961776
46	0x3e04411a	0.1291546
47	0x3ec63a7c	0.38716495
48	0x3d9cc75e	0.07655214
49	0xbe02838f	-0.12745498
50	0xbe2c232c	-0.16810292
51	0x3ee41665	0.44548336
52	0xbd682a3e	-0.05668091
53	0x3da79792	0.081832066
54	0x3da5aecb	0.0808998
55	0xbda50f44	-0.08059552
56	0x3ee5f771	0.44915345
57	0xbe6bf6f3	-0.23043422
58	0xbc3014e9	-0.010747173
59	0xbe87e707	-0.26543447
60	0xbb6156c3	-0.003438399
61	0x3e806ae7	0.2508156
62	0xbde673e3	-0.112525724
63	0xbf038451	-0.51373774
64	0x3d5f2e28	0.054487377
65	0xbd76ff13	-0.06030185
66	0xbe84c3f1	-0.2593074
67	0x3e162c30	0.14665294
68	0xbe621853	-0.22079591
69	0xbe769228	-0.24079192
70	0xbe811885	-0.2521402
71	0x3e002bb8	0.12516677
72	0xbe5aaa1b	-0.21353953
73	0x3d4efe48	0.05053547
74	0x3db4bcb8	0.08825058
75	0x3d81b7e8	0.063339055
76	0x3e49b08a	0.1969625
77	0x3dcc806c	0.09985432
78	0xbe971a76	-0.29512376
79	0x3d623417	0.055225458
80	0xbd7457c1	-0.059654
81	0xbdc4e1f5	-0.096134104
82	0x3e3c3d6f	0.1838281
83	0x3e1ea01e	0.15490767
84	0x3ec751ac	0.38929498
85	0xbda447d5	-0.080215134
86	0xbec2ceaa	-0.38048297
87	0xbebb2a98	-0.36555934
88	0x3ebb600e	0.3659672
89	0xbe2a8555	-0.16652425
90	0xbc891b4b	-0.016736647
91	0x3e0e620c	0.1390459
92	0x3e911524	0.28336442
93	0x3d40c0d8	0.04705891
94	0xbec0d970	-0.37665892
95	0xbdeae8cc	-0.11470184
96	0x3e19279b	0.14956515
97	0x3eb7af12	0.35875756
98	0x3dcec69d	0.10096476
99	0xbe0072c6	-0.12543783
100	0x3e45cb93	0.19315939
101	0xbd71315a	-0.058884956
102	0x3d8456ad	0.064618446
103	0x3d9d4249	0.076786585
104	0x3ea0b2a7	0.313863
105	0xbdf7fd20	-0.12108827
106	0xbe6a9627	-0.22908841
107	0xbdac35f1	-0.08408726
108	0x3e48a1bb	0.19592945
109	0xbd132c0b	-0.035930675
110	0xbe989bb2	-0.29806286
111	0xbcd4ce4c	-0.025977276
112	0xbd416133	-0.047211837
113	0xbe8442ee	-0.25832313
114	0x3d9fc096	0.07800405
115	0xbec5ba98	-0.38618922
116	0xbd848753	-0.064711235
117	0x3d951d53	0.07280984
118	0xbdde3454	-0.108498245
119	0x3d57a280	0.052645206
120	0xbe433275	-0.19062217
121	0x3ed5bfa2	0.41747767
122	0xbe0ed330	-0.13947749
123	0xbd39309e	-0.04521238
124	0xbde224e9	-0.11042196
125	0xbcf8e42c	-0.030382238
126	0xbdb07d5f	-0.08617663
127	0x3d727eff	0.059203144
128	0xbe295621	-0.16536762
129	0xbe84c29a	-0.2592972
130	0x3e133a29	0.14377655
131	0xbeacf077	-0.3377721
132	0x3e6055fb	0.21907799
133	0x3e094862	0.13406518
134	0x3d44c0a8	0.048035294
135	0x3e133e32	0.14379194
136	0x3e001f22	0.12511876
137	0xbd29a5a4	-0.041417733
138	0x3d29cfbf	0.041457888
139	0x3dea611f	0.11444306
140	0x3eab6bf9	0.33480814
141	0xbda95272	-0.08267678
142	0x3e9e113a	0.30872518
143	0xbd3876dd	-0.04503523
144	0x3e35a88b	0.17740075
145	0x3e2d4bab	0.16923396
146	0xbd427ab4	-0.0474803
147	0x3e836edd	0.2567052
148	0x3e535596	0.20638117
149	0xbec57447	-0.38565275
150	0x3cec0f82	0.028815988
151	0x3c512088	0.012764104
152	0xbe6d46ed	-0.23171587
153	0xbe73e868	-0.23819125
154	0xbee92e8d	-0.45543328
155	0xbdb684e1	-0.089120634
156	0x3d94e397	0.07269972
157	0xbe7a3696	-0.24434885
158	0xbed5c9ba	-0.41755468
159	0x3e4d3bf3	0.200424
160	0xbe188b73	-0.14896946
161	0xbdd13af5	-0.10216323
162	0x3f135e96	0.575662
163	0x3dad7c92	0.084710255
164	0x3ed70b47	0.4200079
165	0x3e0c524c	0.13703269
166	0x3dd34961	0.1031673
167	0xbd483da5	-0.048886914
168	0x3b73cd50	0.0037201233
169	0x3db8ff80	0.09033108
170	0x3e155476	0.14583
171	0x3ed1efff	0.41003415
172	0xbe6bb1b1	-0.23017003
173	0x3ded4ada	0.115865424
174	0x3e706b41	0.23478414
175	0x3c894285	0.016755352
176	0xbea110c1	-0.31458095
177	0x3d4b0cd9	0.0495728
178	0x3e8fabad	0.28060666
179	0x3d5e0af5	0.05420967
180	0xbe89e2d6	-0.26930875
181	0xbd93648e	-0.07196914
182	0x3ca8bc44	0.020597585
183	0x3e378fec	0.17925996
184	0x3c09d19b	0.00841179
185	0x3d2c803e	0.04211449
186	0x3f0cdcd6	0.5502447
187	0xbe42add7	-0.19011627
188	0xbe4fbf21	-0.20287754
189	0xbbf46b4b	-0.0074590794
190	0x3e08991e	0.1333966
191	0xbdcb3dfd	-0.09923933
192	0xbdb4219c	-0.08795473
193	0xbc5b809c	-0.013397362
194	0xbf028ec7	-0.5099911
195	0x3de4cfdc	0.111724585
196	0x3e3a33f9	0.18183888
197	0xbdbf8f86	-0.09353547
198	0x3e587f45	0.211423
199	0xbe4a1df6	-0.19737992
200	0xbe296a4b	-0.16544454
201	0xbe8528ab	-0.2600759
202	0x3e84a992	0.25910622
203	0xbe6a9703	-0.22909169
204	0x3dd87afd	0.10570333
205	0x3d8700b8	0.06591934
206	0x3ebb6325	0.3659908
207	0x3e411eec	0.18859452
208	0x3eef76ba	0.4677027
209	0x3e346076	0.17614922
210	0x3e83a77c	0.25713718
211	0x3d70aab6	0.058756553
212	0xbd9a4825	-0.07533292
213	0x3d64aa5f	0.05582654
214	0x3e6829d9	0.22672214
215	0x3ea86e45	0.3289663
216	0x3e2edc81	0.17076303
217	0x3cf204ca	0.0295433
218	0x3e4e9530	0.20174098
219	0xbd2bf4aa	-0.041981377
220	0xbdcdf517	-0.10056513
221	0x3e1a6ff7	0.15081774
222	0x3e508da6	0.20366535
223	0xbea3d3b9	-0.3199747
224	0x3e5c4352	0.21510056
225	0xbd847b7a	-0.06468864
226	0x3eea32a4	0.4574176
227	0xbe45569b	-0.19271319
228	0x3d92d3d5	0.0716931
229	0x3e76618a	0.24060646
230	0xbcbd9222	-0.02314097
231	0xbd84f69d	-0.0649235
232	0xbdcafa66	-0.09911041
233	0xbe57789e	-0.21042106
234	0xbeec653b	-0.46170983
235	0xbecd458c	-0.40092123
236	0xbd28ec64	-0.041241065
237	0xbe7f8965	-0.24954756
238	0xbdc0be93	-0.09411349
239	0xbea4bbce	-0.32174534
240	0xbde7b87a	-0.11314483
241	0xbda33ce7	-0.079706006
242	0x3e01b164	0.12665325
243	0x3da1bad2	0.07896961
244	0xbe5d0261	-0.21582939
245	0xbe4d9fc0	-0.20080471
246	0xbed56b9e	-0.41683668
247	0xbdf6a8d0	-0.12043917
248	0xbe1d72f5	-0.15375884
249	0xbd262c62	-0.04056967
250	0x3ded59df	0.11589407
251	0xbdb92cc3	-0.09041741
252	0x3de1d461	0.11026836
253	0xbece3930	-0.40278006
254	0xbdf01917	-0.117235355
255	0x3da43efc	0.08019826

layer3.0.bias f4 [10]
0	0x3cb7422e	0.022370424
1	0x3d5f3bec	0.054500505
2	0x3ccd29a2	0.025044266
3	0xbda4c47c	-0.08045289
4	0xbdd75a50	-0.105152726
5	0x3dedd531	0.11612929
6	0x3e02edc4	0.12786013
7	0x3e11eadc	0.14249748
8	0x3d0a78d9	0.033806656
9	0x3d687fe5	0.056762595
